…
    "model.add(Dense(1,activation='sigmoid'))"
   ]
  },
  {
   "cell_type": "code",
   "execution_count": 20,
   "metadata": {
    "id": "3qesYVQMpqn6",
    "outputId": "ab924654-3993-48ea-f843-ba09426c5243",
    "scrolled": false
   },
   "outputs": [
    {
     "name": "stdout",
     "output_type": "stream",
     "text": [
      "Model: \"sequential\"\n",
      "_________________________________________________________________\n",
      "Layer (type)                 Output Shape              Param #   \n",
      "=================================================================\n",
      "conv2d (Conv2D)              (None, 128, 128, 16)      448       \n",
      "_________________________________________________________________\n",
      "max_pooling2d (MaxPooling2D) (None, 64, 64, 16)        0         \n",
      "_________________________________________________________________\n",
      "conv2d_1 (Conv2D)            (None, 64, 64, 32)        4640      \n",
      "_________________________________________________________________\n",
      "max_pooling2d_1 (MaxPooling2 (None, 32, 32, 32)        0         \n",
      "_________________________________________________________________\n",
      "conv2d_2 (Conv2D)            (None, 32, 32, 64)        18496     \n",
      "_________________________________________________________________\n",
      "max_pooling2d_2 (MaxPooling2 (None, 16, 16, 64)        0         \n",
      "_________________________________________________________________\n",
      "flatten (Flatten)            (None, 16384)             0         \n",
      "_________________________________________________________________\n",
      "dense (Dense)                (None, 128)               2097280   \n",
      "_________________________________________________________________\n",
      "dropout (Dropout)            (None, 128)               0         \n",
      "_________________________________________________________________\n",
      "dense_1 (Dense)              (None, 64)                8256      \n",
      "_________________________________________________________________\n",
      "dropout_1 (Dropout)          (None, 64)                0         \n",
      "_________________________________________________________________\n",
      "dense_2 (Dense)              (None, 64)                4160      \n",
      "_________________________________________________________________\n",
      "dropout_2 (Dropout)          (None, 64)                0         \n",
      "_________________________________________________________________\n",
      "dense_3 (Dense)              (None, 1)                 65        \n",
      "=================================================================\n",
      "Total params: 2,133,345\n",
      "Trainable params: 2,133,345\n",
      "Non-trainable params: 0\n",
      "_________________________________________________________________\n"
     ]
    }
   ],
   "source": [
    "model.summary() #breakdown of model's layers"
   ]
  },
  {
   "cell_type": "code",
   "execution_count": 21,
…
